lenet_model.pt (torch, 250544 bytes, 10 tensors)

conv1.weight f4 [6, 1, 5, 5]
000000 cf 3c 63 3e a0 73 88 3e 02 9a 03 bd 45 5a f6 3d
       0.22191165 0.26650715 -0.032129295 0.12028936
000010 2a 6b 16 3e 3b e0 05 3e e2 60 91 3e d9 78 5e 3e
       0.14689317 0.13073818 0.28394228 0.21725787
000020 bd 16 ef bc 98 0e 82 3e 8d a1 8e 3d e4 df 2e bd
       -0.029185647 0.2540176 0.06964407 -0.042693987
000030 0a 8d fc 3d 51 86 0e 3e f8 07 a6 3c e4 e6 ce be
       0.123315886 0.13918425 0.020267472 -0.4041053
000040 be 62 19 be f4 58 08 be f0 54 d4 bd 5f 34 bb bc
       -0.14979073 -0.13315183 -0.10367763 -0.02285212
000050 79 77 59 be f4 83 40 be e4 64 ba bd 98 ef 65 be
       -0.21236981 -0.18800336 -0.091012746 -0.22454679
000060 48 b7 63 3c 33 7d 0c be 9f 50 3f 3d 5e 75 3e 3d
       0.013898678 -0.13719635 0.046707746 0.04649865
000070 84 15 31 3e 55 da 95 bd 34 44 c1 bd 06 69 89 bc
       0.17293364 -0.07317034 -0.09436837 -0.016773712
000080 3a a5 af bd b6 db bd bc 44 a5 a1 bd 84 11 0b 3d
       -0.08576436 -0.023176055 -0.0789285 0.03395225
000090 9a d0 0d 3e 26 2d 78 3e 21 10 04 be c5 7b 81 bb
       0.13849106 0.24235973 -0.12896778 -0.003951522
0000a0 1f 5e 7a 3e da 00 34 3e 5a d2 4a 3e 69 70 e8 bd
       0.24449967 0.1757845 0.19806805 -0.113495655
0000b0 27 94 5b bd cf a8 84 3e 8a 23 2c 3e a8 11 06 3e
       -0.053608086 0.2591004 0.16810432 0.13092673
0000c0 5c 65 87 be ad 8a 8b be 08 c7 6b 3c 71 f0 4a 3e
       -0.2644452 -0.2725424 0.0143907145 0.19818284
0000d0 3d 1f 4b 3e e0 5f 5e 3e ba 9c b8 bc 14 33 4d 3d
       0.19836135 0.21716261 -0.02253567 0.05009754
0000e0 51 34 9e 3d 88 d8 81 3d 85 46 47 3e c4 27 b0 3d
       0.07724822 0.06340128 0.19460495 0.08601335
0000f0 22 a7 72 3e 06 3c 9e 3d a8 57 90 3d 4b b8 0d be
       0.23696569 0.07726292 0.07047969 -0.13839833
000100 f1 84 af 3d 4c 1c 25 be df d8 f9 3d 12 75 61 be
       0.085702784 -0.16124076 0.12199568 -0.22017315
000110 ac 33 88 3d 0a 8d e6 3d a3 d1 2a 3b f3 67 91 be
       0.06650481 0.1125737 0.0026064895 -0.2839962
000120 7e 1f 70 3d 82 28 79 be c4 34 b8 3d 5f 99 fd bc
       0.058623783 -0.24331859 0.08994439 -0.030956922
000130 47 eb 3e be 67 4d 47 3e 31 71 82 3e 1f 05 6a 3e
       -0.18644439 0.1946312 0.25476983 0.22853516
000140 20 bd ab 3c dd a7 38 bd c4 8e bf bc 4d a9 5f 3e
       0.020964205 -0.045081962 -0.023383506 0.21841927
000150 2a b7 02 3d b1 c8 61 be 7d 20 09 be 67 d7 65 bd
       0.03191296 -0.22049214 -0.133913 -0.056113627
000160 9b b2 13 3d 6f 8b 0b bd 82 aa d8 bd 53 a6 d3 3d
       0.036059003 -0.03406852 -0.10579397 0.10334458
000170 a0 f6 c8 3d 43 52 91 3e 8a 6b e7 bd e6 5c a1 bd
       0.09812665 0.28383073 -0.11299808 -0.07879047
000180 04 84 0c be ed 08 69 3e 31 af ec bc f1 cd 97 3d
       -0.13722235 0.22757311 -0.028892132 0.07412327
000190 b7 aa 5d be 9b a0 1b 3d 48 5b da 3b 6c ee bf bd
       -0.21647154 0.037994962 0.0066637136 -0.09371647
0001a0 ca c7 ad be 1d 62 f9 bc df df 4b bd 98 56 09 3e
       -0.3394149 -0.030442292 -0.049774047 0.13411939
0001b0 d4 fe fa 3d 38 71 1f be 66 ab 25 be ac 34 69 3e
       0.12255636 -0.15570533 -0.16178665 0.22773999
0001c0 43 d2 91 3e 3a 2c 87 3e 54 55 2a 3e 34 bf ba bd
       0.2848073 0.2640093 0.16634113 -0.091185
0001d0 7e d5 c3 bd 0a ef 3c 3e 69 89 3f 3e 7a 12 26 bd
       -0.09562205 0.18450561 0.18704762 -0.040544964
0001e0 06 3c b1 bd 26 20 2d 3e 18 a2 a2 3d 9f f6 a0 bd
       -0.08654027 0.16906795 0.07941073 -0.07859539
0001f0 f6 c7 09 3e ce b0 2c 3d 3f bd 2e 3d f5 a6 9f 3e
       0.13455185 0.0421608 0.042660948 0.31182066
000200 c2 a4 9d 3d 03 c3 9b 3e ac f9 df 3d fb 99 b5 3d
       0.07697441 0.3042222 0.10936293 0.0886726
000210 1d 78 43 3c f1 7f 57 3e a7 17 0c 3e ee 54 98 be
       0.011930493 0.210449 0.13680898 -0.29752296
000220 35 4e 74 be 64 3e 31 be bd 1f 95 be 63 58 08 be
       -0.23857959 -0.17308956 -0.29125777 -0.13314967
000230 83 74 24 be a2 0d 80 be 2a b8 97 be b6 91 ad bd
       -0.1606007 -0.250104 -0.29632694 -0.08475058
000240 9f da 97 be e8 b5 86 3e 71 49 0e 3e 86 c0 a8 3d
       -0.29658982 0.26310658 0.13895203 0.08239846
000250 9d 6a 37 bc e5 62 2f 3d
       -0.011194852 0.042818923

conv1.bias f4 [6]
000000 40 16 0f 3e b7 36 98 3e 1e 55 1b 3e 56 91 cf bd
       0.13973331 0.29729244 0.15169188 -0.101351425
000010 27 f8 24 3c fa 5d 03 3e
       0.01006893 0.12828818

conv2.weight f4 [16, 6, 5, 5]
000000 0b f0 2e bd 32 6f 5d 3c 75 00 b4 3d 49 d4 f4 bc
       -0.04270939 0.013515281 0.0878915 -0.029886382
000010 15 ec 16 be b6 bf 6a bc 8d c0 cc 3d 29 d1 b8 3c
       -0.14738496 -0.014327934 0.09997664 0.022560673
000020 ff 5f ac 3d 21 7b 00 bd d8 8e 42 bd 02 ed dc 3b
       0.08416747 -0.031367425 -0.047499508 0.0067421207
000030 da e8 1a 3d 38 70 d6 3d 3d 0e b0 3d 32 4e 70 be
       0.03781972 0.10470623 0.08596466 -0.23467329
000040 b1 dd 47 be 86 81 a2 bd 98 95 d0 bb ac f0 83 3d
       -0.19518162 -0.07934861 -0.006365489 0.06442389
000050 73 0c 69 bb 70 6a 21 be 6c fa dd bd 5e a5 9e 3d
       -0.0035560399 -0.15763259 -0.1083878 0.07746385
000060 d4 e3 a4 3d ce 50 21 bc 44 17 11 bc 3d a1 e9 bb
       0.08051267 -0.0098459255 -0.008855645 -0.007129817
000070 2b 7d eb 3c 13 d2 24 bd 45 80 3e bc bd 69 0e be
       0.028746208 -0.040239405 -0.0116272615 -0.13907523
000080 f0 b3 be bc 3f 91 01 3d ff 12 4c bc 19 01 dd bd
       -0.02327916 0.031632658 -0.012455701 -0.10791225
000090 84 8c 4c be a1 c0 4f be 33 cc 26 be 23 e3 5c bd
       -0.19975477 -0.20288326 -0.16288833 -0.053927552
0000a0 f7 c6 08 3e 46 fe fa 3b 95 07 18 be bd 39 4c be
       0.13357149 0.0076597063 -0.14846642 -0.199439
0000b0 8c 9d a6 bd 37 d3 49 3e 23 88 31 3d 8e 7a 12 bd
       -0.081355184 0.19709478 0.04334272 -0.03576141
0000c0 5f ee d1 bd 6c f2 c8 bd 3d 8f a0 3d 60 7c 6b bd
       -0.10250544 -0.09811863 0.078398205 -0.05749166
0000d0 35 37 3c bd aa f8 1b 3d d1 26 95 bd 01 0d 44 bd
       -0.045951087 0.03807894 -0.07282794 -0.047863964
0000e0 09 51 c8 3b 19 68 8b bd ad 2e 09 bc 71 39 1c 3c
       0.006113176 -0.068069644 -0.008372945 0.0095351795
0000f0 4d 31 7d bd 88 19 2b 3d 44 cc 0c bc b6 32 11 3c
       -0.061814595 0.041772395 -0.008593623 0.008862188
000100 96 a1 a9 3d b8 64 cb bd ef 3b 17 be 51 62 bf bd
       0.08282773 -0.0993132 -0.14768957 -0.09344924
000110 79 8e 15 bd 31 c6 ad 3d b8 2d 6a 3d 19 f3 21 be
       -0.036512826 0.08485068 0.057172507 -0.1581539
000120 9d d3 e0 bd 09 af d0 bd ec 6d c0 3c 29 86 0f 3d
       -0.10977862 -0.10189635 0.023489915 0.035040054
000130 81 00 ac 3c 1b a3 18 3d b8 3b 65 3d 32 d3 82 3d
       0.020996334 0.037264924 0.055965155 0.063879386
000140 7f 9b 22 be 4f 0f 30 be b0 3d 0e bd c5 a9 da 3d
       -0.1587963 -0.1719334 -0.0347268 0.10676912
000150 3a 55 80 3d 02 c7 d7 bd f6 53 3d be 19 f9 bb bd
       0.06266256 -0.105360046 -0.1848906 -0.09178371
000160 8b 3c a2 3d 53 ae 41 3c 1c 60 35 bd 5c 78 ed bd
       0.07921704 0.011821347 -0.04428111 -0.11595222
000170 ef 75 47 bd e0 3d 4c 3d e2 da 75 3d 50 77 8b bd
       -0.048696455 0.049863696 0.060023196 -0.068098664
000180 06 4e 27 bd bc 3f 0e 3c 32 90 10 3c 78 d0 83 bd
       -0.040845893 0.008682188 0.008823441 -0.06436247
000190 b4 ee b2 3d bb 24 16 3d 90 e7 68 bd 43 aa 70 3d
       0.08736935 0.036656123 -0.05686146 0.058756124
0001a0 96 40 93 bd 26 4c a4 bd bb f0 3e 3d 36 ef 65 3d
       -0.07190053 -0.08022337 0.046616297 0.056136332
0001b0 19 be 79 3d 27 fb 4e 3d b2 5b 55 be 7a 25 2e be
       0.060972307 0.050532486 -0.2083576 -0.17006484
0001c0 8a e0 e6 3c 48 cf 00 3e c7 5b 18 3d 35 9d 03 be
       0.02818324 0.12579072 0.0371969 -0.12852938
0001d0 8f 04 57 be 8e a0 cb bd c3 c1 40 bd 14 db da 3d
       -0.20997833 -0.09942733 -0.047059786 0.10686317
0001e0 3d a7 e8 3d 75 4e 62 bc 07 b1 00 be ad 38 05 bb
       0.11360023 -0.013812651 -0.1256753 -0.002032797
0001f0 db 76 10 bd d7 36 1c 3c 14 fc a3 3d ee 85 38 3b
       -0.0352696 0.009534559 0.080070645 0.0028156
000200 c7 9d 21 3d ac 52 dd bb 44 fa 5f 3e cf b4 26 3e
       0.03945711 -0.00675424 0.21872813 0.1627991
000210 74 9a 31 3d a3 1a b1 3d 38 f8 2b 3d f3 dd 6f 3e
       0.04336019 0.08647659 0.041984767 0.2342451
000220 b8 76 02 3e 5f 3f e2 3d 46 28 35 3d 9d a6 50 3e
       0.127406 0.11047243 0.04422786 0.20376058
000230 b0 e4 c5 3c f0 01 f1 3d 6a 9d 47 3d b4 63 9c 3d
       0.024156898 0.11767948 0.048734106 0.07636204
000240 d7 f3 28 3e e9 5f cf bc 62 7e c1 bd c1 34 77 3c
       0.16499268 -0.025314288 -0.09447934 0.015088261
000250 15 ae 3c 3e 45 b0 77 3e 48 d4 4d bc c6 29 67 3d
       0.18425782 0.24188335 -0.012562819 0.056436323
000260 77 b7 b0 3d 8c c7 5b 3b 3d cb d7 bb 87 7c 48 3d
       0.08628743 0.0033535687 -0.006585507 0.048946884
000270 f9 dd 73 bd 35 3c af 3d fc ac a9 3d 93 12 57 3d
       -0.05953786 0.085564055 0.08284947 0.052507948
000280 8e 03 6b 3d 35 1d a0 bc c4 72 b7 bd 5c 2c d2 bd
       0.057376437 -0.019545177 -0.08957437 -0.10262367
000290 ea 36 d1 bd cd 13 58 3d dd 03 ea bd ba df 16 be
       -0.10215552 0.05275326 -0.11426518 -0.14733782
0002a0 3b 1f 16 be d2 0a 17 bc 12 47 0f bd 1f c8 8f bd
       -0.14660351 -0.009218888 -0.034979887 -0.07020592
0002b0 5f 7e cb 3c d9 29 6d bd 15 54 db 3c 80 48 6a 3d
       0.024840532 -0.057901237 0.026773492 0.057198048
0002c0 b6 a9 24 3d db 8a 7a bc 83 73 89 3d df 6c 1e 3d
       0.04020091 -0.015291895 0.06711485 0.038678046
0002d0 27 60 31 bd 70 4d 6c bd d1 33 51 be 04 b8 cd bb
       -0.04330459 -0.057691038 -0.20429923 -0.00627804
0002e0 b5 e4 02 bd f7 c7 b4 bb 8b 3c d4 bd fa 09 06 be
       -0.031956393 -0.0055170017 -0.1036311 -0.13089743
0002f0 78 e2 a4 bc 32 87 93 3d fb 29 c5 bd bb b6 b9 bd
       -0.02012752 0.07203521 -0.09627148 -0.09068056
000300 09 1d 2a 3d 71 3c 26 3e ae 2d 32 3d 81 04 04 bd
       0.041531596 0.16233994 0.043500595 -0.032230858
000310 28 85 85 3d bd f7 01 3e e5 f7 79 3d 6c 15 1d 3d
       0.06519538 0.12692161 0.061027426 0.038350508
000320 2c 8c 47 3d e2 02 bc bc f1 e8 f4 3c e2 4d c3 3c
       0.048717663 -0.022950593 0.029896231 0.023840848
000330 ca 3c 99 bd df 5c 5c 3c fc 66 de bc 66 4e 33 bd
       -0.07482298 0.013449877 -0.027148716 -0.04377594
000340 2a ef 1c 3c 89 27 23 bc 3c 57 6f 3d c1 7a e0 bd
       0.0095785055 -0.009958156 0.058432803 -0.109609134
000350 92 cd 23 be e9 29 05 be bd 05 c4 3d a3 24 f0 3c
       -0.15996388 -0.13004269 0.09571407 0.029314345
000360 d6 f4 58 bd 05 88 bd bd 99 2a 3f 3c d7 ab 5c 3d
       -0.05296787 -0.09254459 0.011667871 0.053874817
000370 d4 c2 31 bc 1e ca cc bc 77 d8 54 3c eb f5 da 3d
       -0.010849673 -0.02499872 0.012991062 0.106914364
000380 41 e4 c1 3d ce 70 d3 3c 68 55 27 bd 55 a4 db 3c
       0.09467364 0.025810625 -0.040852934 0.026811758
000390 0f f4 43 bd 1d c3 f0 bc 85 ab 81 3d 7a a1 2f be
       -0.047840174 -0.029389912 0.06331543 -0.17151442
0003a0 1b e0 1e 3d 4c 8d 0c 3e 7c aa c3 bd d9 a5 6c bd
       0.038787942 0.13725775 -0.09554002 -0.057775352
0003b0 2a 7a d5 bd 81 45 10 3d 94 19 2b 3e 8e 9e 8b 3d
       -0.104236916 0.035222534 0.16708976 0.06817351
0003c0 7a 9d d8 bd 18 6b 2e be 2d 79 66 bd e3 a4 9f 3d
       -0.10576911 -0.1703304 -0.056267906 0.077951215
0003d0 f3 ae 7a bd 6f 9b d6 bd 9c 4e 82 bd 10 76 2c 3d
       -0.061202 -0.10478865 -0.0636265 0.04210478
0003e0 fa bd c7 3c 80 94 ba bd ec 67 0d ba 2c b3 a3 bb
       0.02438258 -0.091103554 -0.0005394209 -0.004995724
0003f0 1f 5c 6b 3d eb bd c1 3d c1 ce 21 3d af a3 10 3c
       0.0574609 0.09460052 0.039503817 0.008828088

conv2.bias f4 [16]
000000 71 69 b0 3d 8c 85 7d 3c a6 f2 64 bc 05 a6 78 bd
       0.08613861 0.015473735 -0.0139738675 -0.060705204
000010 bc eb 0d 3e bc 00 d6 3c b1 a9 58 bd 2a cf 7f 3d
       0.13859457 0.026123397 -0.052896205 0.062453426
000020 57 05 9d 3a f8 b7 60 3d 61 02 a0 bd e5 fe b1 3d
       0.0011979741 0.054862946 -0.07812954 0.086911954
000030 a0 97 08 b9 c3 e1 88 bd 10 63 58 bd 1d ca d1 bc
       -0.00013026455 -0.06683686 -0.05282885 -0.02560907

fc_1.weight f4 [120, 400]
000000 33 da f6 bc 78 f9 da bc c3 1d 1f 3d 94 a0 6c bd
       -0.030133342 -0.026730284 0.038846742 -0.057770327
000010 19 ac dc bd 86 98 a7 bd 78 c6 91 bd ad 5f c2 3c
       -0.107750125 -0.081833884 -0.07117933 0.023727262
000020 c1 44 31 3e 45 b6 33 3d 9b 3e 49 bd 1c 83 10 be
       0.17311384 0.043874998 -0.04913197 -0.14112514
000030 94 30 0d bd 73 e0 5d 3e f3 92 28 bd 65 27 bf bc
       -0.034470156 0.21667652 -0.041155767 -0.023334214
000040 a5 9f 26 bc 05 d5 82 3d 48 f0 85 bd f0 6c 05 be
       -0.010169898 0.063882865 -0.06539971 -0.13029838
000050 f5 ae 7a 3b f6 17 47 3d 37 c1 03 3d 58 70 45 bd
       0.0038251255 0.048606835 0.032166686 -0.048202842
000060 a6 3b 86 3d db 20 ae 3c 34 3a 6a 3c 76 c7 9b 3c
       0.06554346 0.021255901 0.014296103 0.019016009
000070 1b 0a b9 3d 95 ce e9 3d e7 42 80 3d 8b 5a a1 b9
       0.090351306 0.114163555 0.062627606 -0.00030775773
000080 40 27 d1 3c 0f 48 13 bd 69 62 57 bd bb 05 64 bc
       0.025531411 -0.035957392 -0.052584086 -0.013917382
000090 db 55 8b bd 81 0e 80 3c 3f 9f f9 3a 49 c3 b3 3d
       -0.06803485 0.015631916 0.0019044651 0.08777482
0000a0 8b 05 34 bd a0 ae a6 bc de 3b 1d bd ef 2c 8a 3c
       -0.0439506 -0.02034694 -0.038387172 0.01686713
0000b0 51 ec 5d 3d 1b e5 48 bd 2d 51 26 bc b0 7c d9 bc
       0.054180447 -0.049046617 -0.01015119 -0.026548713
0000c0 4c cf f9 bc 9a 51 89 3c d6 51 d1 3c c7 ef ee 3c
       -0.030494355 0.016762543 0.025551718 0.02916707
0000d0 e0 b6 de bc 68 76 86 bc f0 42 99 bc 73 5c 0d bc
       -0.027186811 -0.016413882 -0.018708676 -0.008627999
0000e0 78 e8 3c bd 8c 7e 59 bd 89 75 09 bc e7 0b 27 bb
       -0.046120137 -0.0530992 -0.008389839 -0.0025489272
0000f0 64 d7 7d 3c 07 b0 13 3d 47 5a a7 bd 72 18 ee bb
       0.015493248 0.036056545 -0.08171516 -0.0072660977
000100 6a 29 31 3c 0b 09 3c bb 27 6c e9 bb be ce 9c 3b
       0.010813097 -0.0028691913 -0.0071234885 0.004785388
000110 84 6f 32 3d 14 de 3c 3d b3 20 12 3d 98 47 82 bd
       0.04356338 0.046110228 0.035675716 -0.06361312
000120 71 d8 26 3d ad 32 16 3c 47 8b 12 3a 10 50 a6 bc
       0.04073376 0.0091673555 0.0005590212 -0.020301849
000130 1a 85 55 3c 9f 84 9b 3c d5 cf 0b bc 9c 3f 5f 3c
       0.013032222 0.018984137 -0.008533438 0.0136260055
000140 b5 6b 20 bd 53 23 11 3d 7d a9 08 bc 35 b9 2e bd
       -0.039165217 0.03543408 -0.00834119 -0.042657096
000150 c9 5b 4f 3d 56 0a dc ba e6 09 4b 3c 80 92 07 3d
       0.050624643 -0.0016787748 0.012392497 0.033098698
000160 50 43 5a bd 5e c8 8c bd 22 eb 67 bd 61 db db 3c
       -0.05328685 -0.068741545 -0.056620724 0.026838006
000170 65 53 38 3d a4 36 1a bd 21 8e 89 3d ea 72 8f 3c
       0.045001406 -0.037649766 0.06716562 0.01751085
000180 0b 11 4b bd 72 38 3b 3d 52 5d 09 bc c7 6c 07 3d
       -0.0495768 0.045708127 -0.008384066 0.033062723
000190 ef 75 22 3b 9c a7 26 3e 18 fd 4a 3e bf e4 3c 3d
       0.0024789532 0.16274875 0.1982311 0.046116587
0001a0 c5 44 b7 ba ef a8 82 bd 4b cb 12 3e 35 e6 b8 3d
       -0.0013982287 -0.06379878 0.14335363 0.090282835
0001b0 e6 5b 35 be 22 db 89 bc 62 10 04 3c 4e 8c 50 bd
       -0.17710838 -0.016828123 0.008060547 -0.050915055
0001c0 88 d8 f6 3c 81 6a 04 be 7b 0d e1 bc 9b 83 d1 bc
       0.030132547 -0.12931253 -0.027472248 -0.02557545
0001d0 13 e5 ee 3c ae 65 f0 3d cf f8 0d be b4 3e 26 bd
       0.029161965 0.11738144 -0.13864444 -0.040587142
0001e0 65 d1 95 bd ee 44 b7 3c 73 81 ec bd 4c 6a d5 3a
       -0.073153295 0.022371735 -0.11548128 0.0016282289
0001f0 55 f2 bb bc 72 4a 81 bd 7e 3a 6b 3d f2 a4 a6 3c
       -0.022942701 -0.063130274 0.05742883 0.020342324
000200 52 1c 8c 3d 02 b7 58 3d 9b e8 5b 3b 04 2d ac 3d
       0.06841339 0.052908905 0.0033555392 0.084070235
000210 5d b7 2d 3d 5e 26 25 3c 52 da 88 bd ba 07 92 bc
       0.042411197 0.010079948 -0.06682266 -0.01782595
000220 06 68 66 3d 31 4b 91 bc d3 15 0e bc a3 c7 24 bc
       0.05625155 -0.01773605 -0.0086721955 -0.010057363
000230 ab 87 43 bd 9a 2c a7 bc 2f fa 25 3b 43 ab cf bc
       -0.047736805 -0.02040701 0.0025326123 -0.025350219
000240 8a 5a c0 bc 82 9c 2d 3d c6 7c 40 3d 9e 0d 84 bc
       -0.023480672 0.042385586 0.046993993 -0.016119774
000250 95 2f 91 bd 7e c6 92 ba 45 ad 2d bd 6b e7 3c bd
       -0.07089154 -0.0011198071 -0.04240157 -0.046119135
000260 9a b2 04 3b 8d 23 32 3c a4 ea 0e 3c cd ab f0 3b
       0.0020248056 0.010872734 0.008722935 0.007344699
000270 a0 ee 9c bc 9a 86 6b 3c 45 0d 0a 3d f3 74 0a 3c
       -0.019156754 0.014375353 0.03370406 0.008450734
000280 64 50 dd 3c b3 93 43 3c c0 20 2b bd 6d 1a 15 bc
       0.027015872 0.01193707 -0.04177928 -0.009100539
000290 cb c2 43 bd 13 94 a9 3c 93 79 5f bc bf 6e 3c 3d
       -0.04779319 0.02070049 -0.013639825 0.046004053
0002a0 0d cd da bc 20 a6 71 bc e0 60 1a bd 20 43 da 3c
       -0.026709104 -0.01474908 -0.037690043 0.026643336
0002b0 7d 5d c6 3c 73 b9 84 3c fa f8 e1 3c ac a5 11 bd
       0.0242145 0.01620171 0.027584542 -0.035558388
0002c0 26 54 a2 bc f9 b7 24 3d 4a db 18 3d ae fb 6f 3b
       -0.019815516 0.040214512 0.037318505 0.0036618519
0002d0 a5 cc dc bd 5c 7d 33 3d e0 06 7b 3c fb 9e 34 bd
       -0.1078122 0.043820724 0.015321463 -0.044096928
0002e0 13 54 2b bd 78 3d ca bd e3 8f f8 bc f5 34 47 bd
       -0.041828226 -0.098750055 -0.030342048 -0.048634488
0002f0 33 3a 3b bd 2f 82 a7 3d 04 ff ea bc b7 18 52 bd
       -0.0457098 0.081791274 -0.028686054 -0.0512931
000300 6f 80 8e 3d 79 ea a8 bc f6 48 81 bc ad e3 35 bd
       0.069580905 -0.020619618 -0.01578186 -0.04440658
000310 1c 6d c7 3d 2c b9 ce 3d e6 6c b5 3c fe c1 82 bd
       0.09737608 0.100939125 0.022146653 -0.06384657
000320 0f c6 67 3c bd 77 44 3c 4c b9 b6 3c 0b f0 62 bd
       0.014146342 0.011991438 0.022305153 -0.055404704
000330 0d e6 85 3c 06 13 1d 3d 2b d4 58 3c 23 77 14 3c
       0.016345048 0.03834822 0.013234179 0.0090616075
000340 82 7b c4 3d e7 ce 5c 3e 9c 4e 55 bd ab 3d 08 3e
       0.0959387 0.21563302 -0.05207692 0.13304774
000350 f3 3d 83 bd 42 ee 10 bd 8b d1 bd 3c d8 aa 37 bb
       -0.064083 -0.03538347 0.023171207 -0.0028025415
000360 98 1c a3 bc 20 fc d7 bc 3d 3e 5e 3d b1 b3 c3 3d
       -0.019911095 -0.02636534 0.054258574 0.09555758
000370 42 4e 28 bd 86 4b 9f bc 0a d7 a9 3d d8 cc 51 3d
       -0.041090257 -0.019445192 0.082929686 0.051220745
000380 5e 6e 9c 3d 87 d0 7d bd 83 38 1f bd e6 fb 8b 3c
       0.07638238 -0.061966445 -0.038872253 0.017087888
000390 c5 22 8e bd 43 e6 0a 3c 4e a3 ae bd 2e f1 c6 3c
       -0.069402255 0.00847775 -0.08527242 0.024284925
0003a0 51 56 b0 3d c4 47 8f bd 11 1a ba bd ee 78 b1 bc
       0.086102135 -0.0699611 -0.09087003 -0.02166411
0003b0 e6 3b c4 3d 4c df 82 bc 5e 08 8d 3d 39 7f 98 3d
       0.09581737 -0.015975617 0.068863615 0.07446141
0003c0 29 29 43 3d f2 6f b8 bc b0 c8 c3 3d 48 9d 54 3d
       0.047646675 -0.022514317 0.095597625 0.051907808
0003d0 b1 ef 60 bc 3e 36 87 bd ab c0 5a bb 88 7b 30 3d
       -0.013729022 -0.06602143 -0.0033379 0.04308656
0003e0 a2 44 a6 bd f1 e1 01 be 57 58 34 bd fa 7b 62 bd
       -0.081185594 -0.12683846 -0.04402956 -0.055294015
0003f0 db ff 40 3c 88 8f fc 3c 2e b0 1c 3d ec 76 a0 3c
       0.011779751 0.03083016 0.038253956 0.019587956

fc_1.bias f4 [120]
000000 c6 a0 1f bc 77 cd 64 bd d7 14 3a bd da f6 3f bd
       -0.009742921 -0.05586001 -0.04543003 -0.046866275
000010 dc 01 9a 3b c1 c5 30 3d 39 4f ee 3c c8 a5 87 3d
       0.0046999287 0.043157343 0.02909051 0.06623417
000020 77 b1 9e bd 42 08 6d bc 74 08 2a bd f7 91 96 3b
       -0.077486925 -0.014467301 -0.041511968 0.004595037
000030 9e 45 13 bd ae b5 20 bd 76 63 aa bc 12 94 96 3d
       -0.035955064 -0.039235763 -0.02079938 0.07352461
000040 2a 0e 10 3d 61 8d 40 3b 16 90 6a 3d 84 89 cc 3c
       0.035169758 0.0029381143 0.057266317 0.024967916
000050 1e 55 81 bd 6a f7 58 3d 13 1b 4b 3d a1 b2 41 bd
       -0.06315063 0.052970327 0.049586367 -0.047289494
000060 09 76 d8 bc c7 6b e9 bb ab 91 a2 3d c5 e9 b3 3d
       -0.026423471 -0.0071234438 0.0793794 0.087848224
000070 90 9c ce 3d a5 ef ed bd cb 59 7a bc 4a ac 1a bc
       0.10088456 -0.11617974 -0.015280197 -0.009440491
000080 64 8c 22 3d d2 b7 54 bd 0e b3 71 bc a9 21 45 bd
       0.03968467 -0.051933117 -0.014752163 -0.048127804
000090 3a 95 a0 3b ab bc 05 3d f4 54 5b bd 30 5b 3b bc
       0.0049006017 0.03265063 -0.053547814 -0.011435315
0000a0 e3 e0 85 3d 6c 57 a8 3d da ea 2f 3c 5d e2 4b bc
       0.06537034 0.082197994 0.010737145 -0.012444106
0000b0 cf 71 a0 ba 6f fa 00 3d c5 21 93 3c 15 63 78 bd
       -0.0012240949 0.031488832 0.017960439 -0.060641367
0000c0 7d 9b 89 3c 95 d0 c7 3b 3f 03 1a bd 82 9b 7e bd
       0.016797775 0.006097863 -0.037600752 -0.062160023
0000d0 e7 e8 c2 bc da ed 0f bc a6 d6 8b 3d ba a0 87 bc
       -0.023792697 -0.008784736 0.0682805 -0.016556133
0000e0 65 9c 6c 3b 73 57 d6 3c ed 24 32 bd 6c f6 25 bc
       0.003610396 0.026164746 -0.043492246 -0.010129552
0000f0 af ce 15 3d e0 df ce 3b 30 b3 94 3d 7d fe 13 3d
       0.036574062 0.006313309 0.0726074 0.03613137
000100 ad 88 0d bd 82 b9 d1 3c e0 f0 71 3b 16 94 af bd
       -0.034554172 0.025601152 0.0036917254 -0.08573167
000110 bf e6 ad 3c eb a9 69 3c b6 1b a9 3c 85 e1 5c bc
       0.021228192 0.014261703 0.020643096 -0.013481502
000120 98 9e 17 3d 69 ab d8 3c 8d a6 52 bd 9e 65 8a bd
       0.03701648 0.026448922 -0.051428366 -0.06757663
000130 43 ff 8c bc 59 30 5c 3d 34 bd cb 3d 24 96 ad 3c
       -0.017211562 0.053757045 0.09948197 0.021189757
000140 a4 53 49 bc 58 19 93 3d 4d da 4a 3d b8 8d 43 3b
       -0.012288008 0.07182568 0.049524594 0.002983911
000150 7a 25 30 bc 7c b0 d8 bd 13 be 5f bd 03 e1 12 bd
       -0.010751123 -0.10580537 -0.05462463 -0.03585912
000160 4b f9 1d bd e3 fb 03 bd 88 08 a0 3d 5d 2d 3c bd
       -0.038567822 -0.03222264 0.07814127 -0.0459417
000170 4b 92 8f bd 01 39 a4 3d 8b 1b cd bc bd f3 b6 3c
       -0.07010325 0.08018685 -0.025037548 0.02233302
000180 64 07 d1 3c fc 91 a9 3d 68 8a 45 3d 81 a8 86 3d
       0.02551622 0.082797974 0.048227698 0.06575108
000190 5d e5 ae bd d0 a5 13 bc 2f e5 8a bd 37 b4 19 bc
       -0.08539841 -0.009011701 -0.067819946 -0.0093813455
0001a0 ef d6 da 3d c1 1d f5 bb 13 3d 1b 3d fc 19 3e 3d
       0.106855266 -0.0074803536 0.03790004 0.0464115
0001b0 c1 be 9f ba b2 26 b2 3b b1 87 e8 bb 4c 27 08 3e
       -0.0012187586 0.0054367417 -0.007096254 0.1329624
0001c0 ff ec ce 3c 58 e7 44 3d c2 c1 a8 bd 78 b2 fe 3b
       0.025259493 0.04807219 -0.08240081 0.00777274
0001d0 f7 3c 7d 3d 4d a6 cb 3c b3 d5 9d bd 9b 0c 2b 3d
       0.06182572 0.024859572 -0.077067755 0.04176007

fc_2.weight f4 [84, 120]
000000 c7 dc 2a 3d 5d 04 f2 3d c7 7a b3 3d 67 e9 88 3d
       0.041714456 0.118172385 0.08763652 0.06685143
000010 0f f8 21 3c e6 1a c9 bc a5 f8 b8 bc 36 4e 95 3d
       0.009885802 -0.024548959 -0.0225795 0.07290308
000020 79 3e 6f 3d 05 68 84 bd 19 21 97 bd cc d7 99 bd
       0.058409188 -0.06465153 -0.0737936 -0.07511863
000030 e3 0b a1 3d cf 79 37 bd 81 58 43 bc 88 a8 0c be
       0.07863595 -0.0447939 -0.011922956 -0.13736165
000040 7f 74 30 bb 5c 80 76 3d 3f d2 10 be 58 07 1b 3e
       -0.0026924906 0.060181007 -0.14142703 0.1513952
000050 4a f3 80 bd 24 95 00 be 72 93 15 bc e2 82 ae bd
       -0.06296404 -0.12556893 -0.009129392 -0.08521058
000060 e2 15 b7 bc ba 9d 85 3d 19 5e bb bd e4 19 9c 3c
       -0.022349302 0.065242246 -0.09148807 0.019055314
000070 43 0a 01 bd f5 76 a6 3d bf ab d4 bd 50 9d 3b 3d
       -0.031503927 0.08128158 -0.103843205 0.04580432
000080 59 a6 d1 bb e1 41 20 bb 78 75 cc 3d 6d 37 e7 bc
       -0.006398004 -0.002445333 0.09983343 -0.028224671
000090 af 07 92 3d 23 26 a4 bd 29 16 47 3d 63 c2 0e bd
       0.07130372 -0.080150865 0.048605118 -0.03485335
0000a0 16 75 1a be b2 b5 bd bd f7 c3 a9 3d f4 cf d9 bd
       -0.15083727 -0.09263171 0.082893305 -0.10635367
0000b0 74 5c af 3d c9 06 96 3d ac f4 4f 3d ea e3 61 bc
       0.08562556 0.07325513 0.050770447 -0.013787249
0000c0 be 2b 13 3d eb 2f 3f 3c eb a8 6c 3d e2 e6 f3 3d
       0.035930388 0.011669139 0.05777828 0.11909272
0000d0 e7 06 c2 3d 03 e8 3c bd 5a 2a 3d 3c f7 51 ee 3d
       0.09473973 -0.0461197 0.011545742 0.11636727
0000e0 e5 fd d0 bd a3 c1 08 bd 70 c9 ad bd 5e f4 a0 3d
       -0.102046765 -0.03338779 -0.08485687 0.07859109
0000f0 e9 3f 04 be b4 1c 9b 3d b9 3b 80 bd df d5 b6 bc
       -0.12915005 0.07573834 -0.06261391 -0.022318779
000100 98 36 5f bd bb 41 bc bc d8 8c 20 bd d7 a7 ee 3c
       -0.054495424 -0.022980561 -0.03919682 0.029132767
000110 cf 0d 32 bd 43 95 28 bd d8 4f c7 bd e8 74 b3 bc
       -0.0434702 -0.041157972 -0.09732026 -0.021906331
000120 c1 41 05 3e 5e d1 98 bb 7d 24 e4 3d 20 cf b2 3d
       0.13013364 -0.0046636304 0.11139772 0.08730912
000130 2e e7 62 3d 68 f5 fb bd be 88 0f 3c 85 00 e3 3d
       0.05539625 -0.12302667 0.008760629 0.110840835
000140 fc 87 0a bd b4 79 fd bd d1 ed 4c bd bc 34 bd 3d
       -0.03382109 -0.12376729 -0.050031487 0.09238574
000150 46 98 de bc 99 b5 14 3e 7d ea 9f 3d 6b 22 8f 3d
       -0.027172219 0.14522399 0.07808397 0.069889866
000160 a3 15 2e 3e 93 cc 0a 3c e9 09 b4 bc 25 a9 90 3d
       0.17000441 0.008471626 -0.021977382 0.07063512
000170 d1 f1 0f 3e a4 f5 07 be ae 3f e1 bb 21 ce ef 3d
       0.1405709 -0.13277298 -0.0068740463 0.11709238
000180 b4 26 0a be 07 92 d1 bd 83 53 a7 3d 31 1b 17 3c
       -0.13491327 -0.10232931 0.081702255 0.0092227915
000190 30 ce 39 3d 37 ef 79 3c 82 7d a5 bd 3f 7b 4e 3c
       0.04536265 0.015254787 -0.08080579 0.012602626
0001a0 ed 8a 91 bb f0 6f 36 3d 2f c1 e3 3a 01 e1 5b be
       -0.00444161 0.044540346 0.0017376299 -0.21472551
0001b0 80 70 03 be f2 a4 88 3d 1c 07 cd bd 7f e4 c9 3c
       -0.12835884 0.06672086 -0.10011122 0.024645088
0001c0 83 8b ca 3d e9 2b d1 3d e2 fc 9c 3d 71 af 8b 3a
       0.09889891 0.10213453 0.07665421 0.0010657144
0001d0 07 93 dc bd 42 03 9b bc 2b 05 1c 3d 39 25 7d 3d
       -0.10770231 -0.018922452 0.038090866 0.061803076
0001e0 cb 70 54 3d a2 98 29 bd 58 86 ae 3d 70 19 49 bc
       0.05186538 -0.041405328 0.08521718 -0.012274131
0001f0 f2 41 94 3d ec 76 02 3e 33 a0 98 bd ae 57 d2 3a
       0.072391406 0.12740678 -0.074524306 0.0016047859
000200 cd bf cb bd 70 6c c2 bd b1 7d cc bd 39 92 3f 3e
       -0.099486925 -0.09493339 -0.09984911 0.18708123
000210 48 9f 36 3d da 12 d7 bd 75 06 4b 3d a0 56 a3 3d
       0.044585496 -0.105016425 0.049566705 0.07975507
000220 67 cb 23 3d 2f 31 e0 bd 78 39 18 be 69 18 09 3e
       0.0399889 -0.10946881 -0.14865673 0.13388218
000230 ba c4 c4 bd a5 df 0f be da 9b eb 3d 23 7f d4 3d
       -0.09607835 -0.14050157 0.11504336 0.10375812
000240 bc 6b 09 be 4e ff bb bd fc 9b cd bd c5 83 5a be
       -0.13420004 -0.09179555 -0.10039517 -0.21339329
000250 b6 80 db bd c9 4c 6c 3c 7d 12 a6 bd 99 93 10 3e
       -0.10717909 0.014422604 -0.08108995 0.14118804
000260 40 f3 23 3d 70 d2 df bd ca 57 85 bc e2 ed a4 bd
       0.040026903 -0.1092881 -0.016277213 -0.08053185
000270 00 07 66 3d 13 42 38 bd 1b 86 54 3d 3b 06 b5 bd
       0.05615902 -0.04498489 0.051885705 -0.08839079
000280 9b 03 ac bd ae 1f 46 bd 0a 4b ee 3d ee e3 c0 bd
       -0.08399125 -0.048370056 0.11635406 -0.09418474
000290 00 a6 1a 3d e5 63 26 bd c4 44 07 3e 0b 98 8e bd
       0.037755966 -0.04062261 0.13209826 -0.06962594
0002a0 87 63 23 be 81 aa 9c bc 75 b1 6e be 50 a2 3f bd
       -0.15955935 -0.019124271 -0.23309882 -0.046785653
0002b0 29 28 62 bd b3 0b 11 be 66 8a f8 3c a8 5a d2 bd
       -0.05521408 -0.14164619 0.030339431 -0.102711976
0002c0 66 b1 f9 3d 44 8d 4e 3d e9 bc 11 3e 3e a8 26 3d
       0.12192039 0.05042769 0.1423222 0.040687792
0002d0 f6 84 66 3d 31 96 61 bc cf 76 9e 3d 81 76 94 3c
       0.056279145 -0.013768719 0.07737505 0.018122913
0002e0 94 a2 aa bd 3e 95 17 be 1d 53 b5 3d cd f2 00 bc
       -0.083317906 -0.14803025 0.08853743 -0.007870388
0002f0 fc ad 96 bc f5 14 f7 bb 35 e7 6e bd f6 b1 0a be
       -0.01839351 -0.00754034 -0.058325965 -0.13544449
000300 f3 26 34 3d 86 3c dc 3d 08 9e ae bd 5e 62 40 bd
       0.043982457 0.107537314 -0.08526236 -0.04696881
000310 de 08 83 be 11 8c d0 bd a6 1e 1a 3d 9f 21 a8 bc
       -0.25592703 -0.101829655 0.037626885 -0.020523844
000320 c3 f0 83 3d 11 bf f0 3b 87 4c 3c 3d ab 17 1e 3c
       0.06442406 0.0073469956 0.04597142 0.009649198
000330 9d 6f 32 3d 12 53 f8 bd 8a fd 79 3d 38 b2 7e bc
       0.043563474 -0.121252194 0.06103281 -0.01554542
000340 3c eb b0 bc 8e 8e a8 bd d9 18 98 3d cd e9 41 3e
       -0.021596543 -0.08230315 0.07426614 0.18936844
000350 25 02 1d be c8 2a 6e bd c0 9b c0 3d c5 df 0d be
       -0.1533285 -0.058146268 0.09404707 -0.13854893
000360 6e c8 a0 bc 54 ee 86 bd 0f 68 30 3c c8 bd b6 3d
       -0.019626822 -0.06588426 0.010766997 0.08922917
000370 78 d6 1b 3d 31 12 98 3d 80 6e ec 3b 66 d2 da bc
       0.03804633 0.07425345 0.007215321 -0.026711654
000380 10 b0 11 bc 1b 19 0a bd 97 ca cc 3d f0 10 96 ba
       -0.008892074 -0.03371535 0.099995784 -0.001144914
000390 01 68 df 3d 5a 3c 88 3c 96 66 aa 3d 72 13 8b 3d
       0.10908509 0.01663034 0.08320348 0.06790818
0003a0 05 30 c0 bd 66 02 0b be 99 a1 8c 3a 5a ef 3f bc
       -0.09384159 -0.13575134 0.0010729312 -0.011714781
0003b0 66 5c 9e bd 2b 97 1d 3b 66 af eb bd 0c 64 7e bd
       -0.07732467 0.0024046402 -0.11508064 -0.06210713
0003c0 64 65 97 3c 9d 9c 94 bd 33 b6 2b 3d 0e 1c d2 3b
       0.018480964 -0.07256434 0.041921806 0.006412036
0003d0 ba 0d 15 3a 62 59 ab 3c 49 bd 10 bc b6 33 88 bd
       0.00056859443 0.020916644 -0.008834192 -0.06650488
0003e0 53 38 c6 3d 51 89 5b 3d 7b 37 02 3e af b4 2a bd
       0.09678712 0.053597752 0.12716477 -0.04167622
0003f0 c7 77 3b 3c bc 35 1f 3d 68 78 bc bd e6 b7 40 bd
       0.011442131 0.038869604 -0.09202653 -0.04705038

fc_2.bias f4 [84]
000000 13 6c 6e ba 1d 77 7a bd 18 5b ed bd 99 c2 7b bd
       -0.0009095084 -0.06114875 -0.115896404 -0.06146488
000010 3b 89 99 bd bf 5b 3c 3d 24 de ef 3c cc 25 f2 3c
       -0.07496878 0.045985933 0.02928073 0.029559039
000020 bc 99 98 3c ca 80 29 3d 4e 24 45 3c f3 aa b5 bd
       0.018627994 0.04138259 0.0120325815 -0.088704966
000030 9c ed 94 bd d0 64 ef 3c 71 0b 16 3d 68 dc 65 3d
       -0.07271883 0.029222876 0.036632005 0.0561184
000040 cc e3 bc bd 17 f9 63 3d 10 5d 8b 3d a6 85 44 3d
       -0.09223136 0.055657472 0.0680486 0.04797902
000050 18 3f c6 bd b7 58 18 3d a0 20 db 3d d9 3a 93 bd
       -0.09680003 0.03719398 0.10699582 -0.07188959
000060 be 33 fa 3c c2 e8 df 3c f1 42 6e bd 13 f1 eb bc
       0.03054225 0.027332667 -0.05816931 -0.028801477
000070 2e bb cd bc 8a 33 6a 3c 05 b4 c4 bd 23 d2 52 3d
       -0.025113668 0.014294514 -0.096046485 0.051469933
000080 db 8e 7d bd c7 97 6e bd 96 f4 b6 3d 23 d2 16 3c
       -0.061903816 -0.058250215 0.0893337 0.009205374
000090 1c c6 a4 bc 58 02 47 3d 7e 88 e6 bc 02 d2 9b 3d
       -0.020113997 0.04858622 -0.028141256 0.07608415
0000a0 5d c1 54 3d ca 7e bf 3c a0 eb 48 bc 6f af c4 3c
       0.051942218 0.023375887 -0.012263209 0.024009435
0000b0 4b f0 b8 bd aa c4 16 3d 26 11 a9 3c ef 83 6b 3d
       -0.09030207 0.036808647 0.02063806 0.05749887
0000c0 3d 56 1b 3d db f1 ab bd 2a c6 d8 3c 87 5f 84 3d
       0.03792404 -0.0839574 0.02646168 0.06463533
0000d0 69 62 2c bd bb b2 42 3d 0a 39 90 3b 8e a1 ac bc
       -0.04208604 0.047533732 0.004401331 -0.021073129
0000e0 bd 80 91 bd 62 56 ac bd dd 4b c8 bc c8 fb 50 3c
       -0.07104633 -0.08414914 -0.024450237 0.012755342
0000f0 7e 03 b1 bd 62 32 5a 3d 08 a0 71 bd 81 05 a6 3d
       -0.08643244 0.053270705 -0.05899051 0.081065185
000100 5c e6 30 3d fe 07 43 3c 28 10 d5 3d 85 81 38 3d
       0.043188438 0.011903761 0.10403472 0.045045394
000110 ef fc d9 bc 07 54 64 bd 2c 95 3a bc 39 03 0d bd
       -0.026609866 -0.055744197 -0.011388104 -0.0344269
000120 89 0d 81 bd 89 12 42 bd da ee 6a bc 2a 33 85 bc
       -0.0630141 -0.047380958 -0.014339173 -0.016259748
000130 be b0 0f 3d 35 39 f0 3c 97 05 4f 3d bc 0a 1f bc
       0.035080664 0.029324153 0.05054244 -0.009707149
000140 6f b8 da 3c 4e 5d 8c bb af e5 86 3d dc f6 a4 3c
       0.026699273 -0.0042835837 0.065867774 0.020137243

fc_3.weight f4 [10, 84]
000000 73 c1 8c bd 97 3f d1 bd a9 38 b6 3d 45 3a 3e be
       -0.06872835 -0.10217207 0.08897526 -0.18576916
000010 02 5b 45 be 2d 30 a7 bc 33 40 a9 bd 8f 14 06 3e
       -0.19272998 -0.020408714 -0.08264198 0.1309378
000020 35 f8 5c be 50 77 23 3e a6 5d ca bd e9 a4 13 3e
       -0.21579058 0.15963483 -0.09881143 0.14418377
000030 9e 14 20 3e bf 9c c5 bb 64 1a 05 3d 2f 4c f7 3d
       0.15632865 -0.0060306485 0.03249587 0.12075078
000040 74 7b 2c be 04 b6 e0 bd 79 28 54 3d 2a e1 05 3d
       -0.16843969 -0.10972217 0.05179641 0.032685436
000050 0b 4d 9f 3d 44 ae c5 bc fc 56 6b bd 08 ba d4 bd
       0.07778367 -0.024130948 -0.057456 -0.10387045
000060 7f 47 57 be 87 24 b8 bd a0 34 0d be ee 74 32 3e
       -0.21023367 -0.08991342 -0.13789606 0.17427418
000070 6e 4a 10 be fc b6 3f bd af bd 21 3e 20 f9 62 3d
       -0.14090893 -0.046805367 0.15795015 0.055413365
000080 76 bd b4 bd 26 27 af bd b3 3a d1 3d 68 35 03 bc
       -0.08825199 -0.08552389 0.10216274 -0.0080083385
000090 c4 06 b9 bd 81 66 2e be 9f 9d d4 3d d7 8b c1 3d
       -0.090344936 -0.1703129 0.10381626 0.094505005
0000a0 13 9d 41 be ac a5 da bc 31 9d 90 3d d9 25 f1 3d
       -0.18907575 -0.026690327 0.07061232 0.11774797
0000b0 1c 95 16 be 32 14 5f 3e f1 5a 61 3d 42 f3 91 3d
       -0.14705318 0.21785048 0.05501837 0.07126476
0000c0 25 25 e4 bd db 49 19 be b3 63 98 3d 86 3a 15 be
       -0.11139897 -0.1496958 0.07440891 -0.14573106
0000d0 d3 8b 4f bd f7 16 2d 3b 91 08 93 3d e5 46 e7 3c
       -0.050670456 0.0026411393 0.07179368 0.028232047
0000e0 1f 51 04 3e 33 be ae 3d a3 b8 7c bd ea 0a 45 bd
       0.1292157 0.08532371 -0.06169952 -0.04810611
0000f0 90 0d 07 bd 2f b0 ed 3d a9 04 af 3c 30 c1 26 3e
       -0.03297192 0.1160587 0.021364527 0.16284633
000100 39 fa b7 bd 32 de ef bc 4b 4a c5 3a f3 bd 9e 3b
       -0.08983273 -0.029280756 0.0015052048 0.004844421
000110 43 af bf 3d 65 dc c8 3c a4 ff 30 3e 48 ac 5a bd
       0.093596004 0.024519155 0.17285019 -0.053386956
000120 cc 37 8e 3d 91 68 0f 3e 6c c8 a7 bd 43 22 a9 bd
       0.06944236 0.14004733 -0.08192524 -0.08258488
000130 67 de be 3d 61 8f a3 3d 78 84 df bd ee 55 9a bd
       0.09319764 0.07986332 -0.10913938 -0.07535921
000140 ca 24 00 3e fa 32 84 bb 88 86 00 3e 4a 08 0e 3e
       0.12514034 -0.004034397 0.1255132 0.1387035
000150 72 68 5f 3e df 74 63 be 52 ff 05 be 48 84 b8 bc
       0.21817186 -0.22212552 -0.13085678 -0.022524014
000160 78 4e a0 3d c7 12 a4 3d 05 89 8c 3d 08 b4 c4 3d
       0.07827467 0.08011394 0.06862072 0.09604651
000170 14 08 89 3d 69 56 3c bd ec 15 ae bc dd 63 12 bc
       0.06690994 -0.045980845 -0.021250688 -0.008934942
000180 df 64 17 3d 8e 49 d1 3d 13 80 a6 3c 85 42 0b 3e
       0.036961433 0.102191076 0.020324742 0.13599594
000190 fc 0e ab 3c ad a3 96 bd 44 4b 1a 3d b8 31 2c be
       0.020881169 -0.073554374 0.037669435 -0.16815841
0001a0 43 76 89 3d 91 da 23 be 04 49 f0 3d 5f 0c aa bd
       0.0671201 -0.16001345 0.117326766 -0.08303141
0001b0 93 57 a3 3b 02 ca 1e 3d 28 46 db 3d 74 f5 3f 3e
       0.004984805 0.03876687 0.107067406 0.18745977
0001c0 aa e0 69 bc 59 88 16 be 28 6d 75 bd dd e9 fb 3d
       -0.0142747555 -0.1470045 -0.059918553 0.12300465
0001d0 73 d4 59 3d 3a 5d e7 3d 33 42 52 bd 43 1c db 3d
       0.053181123 0.112970784 -0.051332664 0.1069875
0001e0 28 45 ce bd f8 7e 6a bd 97 a8 05 3e 6d 3e 09 be
       -0.10071784 -0.057249993 0.13052593 -0.1340272
0001f0 5f 06 81 3d 2b 1c 64 be 8a 55 73 bd b2 ae c3 bd
       0.06300043 -0.2227637 -0.05940775 -0.09554805
000200 42 63 43 3d 45 a0 ac 3d 82 7e 2a bd 20 3d 03 be
       0.04770208 0.084290065 -0.041624554 -0.12816286
000210 28 80 e5 bd a5 be a6 bc 42 e0 82 3d 9d f4 38 bc
       -0.112060845 -0.020354578 0.0639043 -0.011288789
000220 3c b0 a4 bd 16 da ff bd 99 55 bb bd 2c b1 2d be
       -0.080414265 -0.124927685 -0.09147186 -0.16962117
000230 6f d9 1a bd 42 9c b3 3d 2f f2 a3 3b 84 46 13 3e
       -0.037805017 0.08770038 0.005003236 0.14382368
000240 1d f2 43 3e ac 93 c0 3d 0a 72 30 3e 55 dc 85 bc
       0.19135328 0.09403166 0.17231002 -0.016340414
000250 a2 d0 17 3e 08 35 27 be 08 3f 13 3e ac fe 15 3e
       0.14825681 -0.16328824 0.14379513 0.14647931
000260 dd f9 d9 bd 95 a2 15 be 7f 29 29 bd 60 4b 69 3e
       -0.10643361 -0.14612801 -0.04129934 0.2278266
000270 d7 dd 66 bb a0 a8 07 be 02 2d f1 3d 66 ed a7 bd
       -0.0035227442 -0.13247919 0.11776163 -0.08199577
000280 75 05 87 3d 58 d0 f8 3c 03 db 1d 3e 7e 15 be bd
       0.06592838 0.030372784 0.15415578 -0.09281443
000290 75 5e 88 bd 53 6d 2a be df 55 fa 3d 2d eb 1e 3e
       -0.06658641 -0.16643266 0.1222341 0.155194
0002a0 8e b6 5f bd 9f d0 91 bd 8a c6 0b 3e 06 cc 2d bd
       -0.054617457 -0.071198694 0.13649955 -0.0424309
0002b0 fc 15 9c 3d 01 b3 02 3e b9 86 9c 3c 70 c1 c9 3d
       0.07621381 0.12763597 0.01910721 0.098513484
0002c0 51 af 01 be 72 2b a2 3d 0a 50 0d 3e 0a d1 b4 bd
       -0.12664534 0.07918443 0.13800064 -0.088289335
0002d0 ea 59 51 bd 9d db 35 3d b4 51 cc bd c2 30 f2 3c
       -0.05111114 0.044398893 -0.09976521 0.029564265
0002e0 72 b8 6d bc 6e 4a 04 be 56 79 82 3d dd ea ff bd
       -0.014509307 -0.12919018 0.06370799 -0.124959685
0002f0 19 05 d1 bd 40 45 f6 bd d8 5e 12 3e d5 dd aa 3d
       -0.102060504 -0.12024927 0.14293993 0.08343092
000300 a1 1e 01 3e 33 ac 15 be bc af 7e 3c 5d ef 9f 3d
       0.1260934 -0.1461647 0.015544828 0.07809327
000310 3a 22 9f 3d fc 8e 31 bd df b7 69 3d c7 0d 17 be
       0.077702 -0.04334925 0.05706012 -0.1475135
000320 84 3b 80 3d a8 a9 04 be 94 7c 28 3c 1d 6e 81 bd
       0.06261352 -0.12955344 0.010283608 -0.063198306
000330 92 3c 96 bd ee d4 b3 3c 77 14 07 bc 12 26 c1 bd
       -0.073357716 0.021952119 -0.008244625 -0.094310895
000340 3b f8 15 be ba 5b da bd e5 fa 83 bd 9b a1 e0 3d
       -0.14645474 -0.10662027 -0.06444339 0.10968324
000350 fa 26 28 3c bb af b8 bd 79 b8 ee 3d fa 46 f2 3b
       0.010263199 -0.09017893 0.11656279 0.007393715
000360 f1 9d 1b 3e 73 8c 98 bb b2 59 e5 bd c5 1c 0a 3e
       0.15196969 -0.0046554147 -0.11198749 0.13487537
000370 3a de 72 3d b1 8b f8 bd 52 32 8e bd db d4 f4 bd
       0.059293963 -0.12136019 -0.069431916 -0.119546615
000380 53 21 da 3d 58 78 64 3d d1 a4 50 bd 73 63 f5 3d
       0.10650887 0.05577883 -0.05093843 0.11981859
000390 4a da 21 be d9 1a 15 3e 37 21 ba 3b 16 57 a1 bd
       -0.15805927 0.14561023 0.005680229 -0.078779384
0003a0 d8 b1 72 3d b6 83 4c bd a3 3e 7c 3d 36 b8 08 be
       0.059251636 -0.049930297 0.061583173 -0.13351521
0003b0 46 7b be bd 4f 2b ba 3d 18 b3 10 be c9 da 78 bd
       -0.09300856 0.09090292 -0.14130819 -0.060755525
0003c0 b6 a3 16 3e 6f e4 af 3d fe 8d ba bd 8d c2 f6 bd
       0.14710888 0.08588492 -0.09109114 -0.12048826
0003d0 3b 52 ab bd d3 eb c5 bd 07 87 00 bd 4f fc 18 bb
       -0.083652936 -0.096641205 -0.031378772 -0.0023343747
0003e0 d6 c0 06 3e e9 4f c1 3d dc 25 6d 3c d2 4b 9d bd
       0.13159499 0.0943907 0.014474358 -0.07680477
0003f0 65 53 a5 3d 7f 79 02 3e 33 a4 05 3e e8 51 81 3d
       0.08072547 0.1274166 0.13050918 0.063144505

fc_3.bias f4 [10]
000000 37 9b 55 bd 75 2c bc bd a1 89 b8 bd 95 c4 78 bd
       -0.052149978 -0.09188167 -0.09010626 -0.06073435
000010 b7 ba 82 3d 39 4f ca bd a2 ae f1 bd 36 99 c0 bd
       0.06383269 -0.09878392 -0.11800887 -0.09404223
000020 73 b4 d3 3d 4e be b8 bd
       0.10337152 -0.09020673
